pretrained/etn-projmnist-8x.pt (torch_old, 379993 bytes, 80 tensors)

transformer.transformers.0.predictor.conv1.weight f4 [32, 1, 3, 3]
0.3556803 -0.29907632 0.13245825 0.21274324 -0.65964556 0.27983713 0.1206228 -0.060625546
0.12909903 0.086044855 0.12725978 -0.0060785953 0.006116144 -0.24977182 -0.13119778 -0.13421975
-0.12827617 -0.11841052 0.5078431 0.17369321 -0.19897814 -0.2663856 -0.06826419 -0.17645343
-0.28528154 0.029851964 0.43071154 0.08503948 -0.371925 0.1279851 0.08130211 0.37234834
0.2557735 -0.45929512 -0.4386217 -0.29706886 0.52017736 0.011102255 0.06351413 -0.08979411
0.27640012 -0.33341613 0.56168693 0.09241981 -0.2960123 0.120644905 -0.19332261 0.018954331
-0.7429356 -0.22669885 -0.606465 -0.6668795 -0.19445112 -0.3558283 0.51136607 0.5849667
-0.11169886 -0.1458751 0.16650571 -0.23206578 -0.17106996 0.3075909 0.12213676 0.30022568
-0.04585383 -0.36614758 -0.31394368 0.096661106 -0.7509883 -0.5984043 0.1278491 -0.24476184
0.04745314 0.11475465 0.119221225 0.064185545 0.35397252 0.2200208 -0.3941046 0.18798266
-0.28762656 -0.1305505 0.057360306 -0.17455457 0.2621243 -0.19392048 -0.4346225 0.39344582
0.014782371 0.15704285 -0.0050128265 -0.68266565 0.26488417 0.08451129 -0.86049116 0.035830937
0.19831657 -0.23988228 -0.29493868 -0.13525353 0.51880884 -0.15147911 0.06719014 0.41031218
-0.35908914 -0.43650725 0.53751355 -0.02884299 0.3909192 0.11278468 -0.030370954 0.35334498
0.3749179 -0.44338372 0.047413483 0.3393985 0.1847359 0.14906095 -0.26045418 -0.17547126
-0.09956676 0.21763104 0.6203306 -0.19083396 0.29414538 -0.004654062 -0.36164096 -0.2168384
0.22595267 0.19251621 -0.37074843 -0.015832538 0.59789526 0.31567326 0.24373448 0.37272447
0.3211042 0.018417886 -0.3220154 -0.3573228 -0.31927973 -0.078833 -0.31326777 0.01692094
0.22973113 -0.08997568 0.20208009 0.26725948 0.2767586 0.32843968 -0.00877057 0.44227445
0.055019725 0.08676306 -0.60563457 -0.2270717 -0.018146455 -0.73076516 0.3445888 0.07056518
-0.71248555 0.17010656 0.15129325 0.2550304 -0.20643042 0.023995059 -0.15634434 -0.11573314
-0.3240122 -0.30291715 -0.1768438 0.115128435 0.081233375 0.03396531 0.73587334 0.5722515
0.37454626 -0.07870918 -0.2748316 0.19264123 -0.0983444 -0.25053594 -0.47407374 -0.20809126
-0.37734294 0.2654679 -0.33101293 -0.38662934 0.030356368 -0.3388304 0.020802293 -0.2958542
-0.2934472 0.08495259 0.3195507 -0.40800405 0.090897076 0.27655116 0.35546646 -0.2791746
0.028337477 -0.46398965 0.1679614 -0.2814932 0.10500054 -0.027966252 -0.043350145 -0.05770085
0.018905956 0.20202474 -0.036822647 0.017242054 -0.35339162 0.30237213 0.4682676 0.35236433
0.4447784 -0.19627564 -0.11673808 0.4431023 -0.33105683 0.355723 -0.31589437 -0.5032097
0.18557416 -0.35392037 -0.12683839 0.33029482 0.28188026 0.4222842 0.30655783 -0.5145289
0.19935896 -0.04742757 -0.22626078 0.28422302 -0.39938933 0.16825908 0.5307249 -0.29339057
-0.42155418 0.19582057 0.12586814 0.00804936 -0.33205613 0.11628784 -0.297645 -0.28120267
-0.13388504 0.48693618 0.45080024 0.015675565 -0.3011752 -0.001007661 -0.040216144 -0.3762954
00000000: ba1b b63e 8820 99be 23a3 073e 5dd9 593e
00000010: 88de 28bf d046 8f3e 1609 f73d 7e52 78bd
00000020: 8932 043e 4938 b03d 6350 023e f42e c7bb
00000030: ef69 c83b 2fc4 7fbe b658 06be e770 09be
00000040: d45a 03be 3781 f2bd 0102 023f a2dc 313e
00000050: edc0 4bbe b263 88be 18ce 8bbd 35b0 34be
00000060: 6c10 92be 1b8c f43c 3986 dc3e 2e29 ae3d
00000070: f46c bebe 870e 033e b881 a63d 71a4 be3e
00000080: bff4 823e bb28 ebbe 0693 e0be 6919 98be
00000090: 582a 053f 3ce6 353c b213 823d f9e5 b7bd
000000a0: 5184 8d3e 85b5 aabe b7ca 0f3f 9946 bd3d
000000b0: ed8e 97be ad14 f73d 5df6 45be 1d46 9b3c
000000c0: 0731 3ebf be23 68be 4a41 1bbf 9db8 2abf
000000d0: 321e 47be 202f b6be e3e8 023f 61c0 153f
000000e0: 5fc2 e4bd 4860 15be 7980 2a3e a7a2 6dbe
000000f0: f72c 2fbe 8e7c 9d3e d622 fa3d 2eb7 993e
00000100: 3ad1 3bbd b277 bbbe 3abd a0be 42f6 c53d
00000110: c540 40bf 0631 19bf e0ea 023e d9a2 7abe
00000120: 395e 423d 7c04 eb3d 422a f43d b673 833d
00000130: e33b b53e 224d 613e 14c8 c9be 877e 403e
00000140: ca43 93be 08af 05be a4f2 6a3d 6fbe 32be
00000150: 2835 863e 1793 46be d786 debe bb71 c93e
00000160: c231 723c d7cf 203e a342 a4bb 2dc3 2ebf
00000170: e69e 873e 4114 ad3d 2649 5cbf 76c3 123d
00000180: 8013 4b3e b3a3 75be 3402 97be e77f 0abe
00000190: a8d0 043f 571d 1bbe fc9a 893d 7014 d23e
000001a0: 88da b7be e17d dfbe 7d9a 093f 2248 ecbc
000001b0: 9026 c83e a8fb e63d 82cc f8bc a2e9 b43e
000001c0: 3df5 bf3e 3103 e3be a434 423d a4c5 ad3e
000001d0: 682b 3d3e 6fa3 183e 405a 85be bdae 33be
000001e0: a8e9 cbbd acda 5e3e fccd 1e3f fa69 43be
000001f0: 399a 963e 1a81 98bb 0129 b9be e30a 5ebe
00000200: 2360 673e f822 453e bdd2 bdbe 3db3 81bc
00000210: aa0f 193f ed9f a13e 8895 793e bed5 be3e
00000220: c567 a43e 1be1 963c 34df a4be 04f3 b6be
00000230: a278 a3be 3273 a1bd a264 a0be c89d 8a3c
00000240: a33e 6b3e 2b45 b8bd 15ee 4e3e 3cd6 883e
00000250: 4eb3 8d3e 3f29 a83e 70b2 0fbc cc71 e23e
00000260: 5d5c 613d d5b0 b13d de0a 1bbf 7c85 68be
00000270: e0a7 94bc 6d13 3bbf f16d b03e 7a84 903d
00000280: 7465 36bf 6a30 2e3e 9eec 1a3e 5893 823e
00000290: 7f62 53be 4991 c43c bb18 20be 7f05 edbd
000002a0: ede4 a5be f517 9bbe 8b16 35be 75c8 eb3d
000002b0: af5d a63d 351f 0b3d 3262 3c3f 137f 123f
000002c0: 87c4 bf3e 4732 a1bd bab6 8cbe be43 453e
000002d0: ca68 c9bd 3f46 80be cbb9 f2be e015 55be
000002e0: 1833 c1be 69eb 873e 877a a9be 48f4 c5be
000002f0: ebad f83c 2e7b adbe 9269 aa3c 347a 97be
00000300: b63e 96be a0fb ad3d 269c a33e e8e5 d0be
00000310: 3f28 ba3d 1d98 8d3e b3ff b53e f9ef 8ebe
00000320: ff23 e83c 0d90 edbe 13fe 2b3e e01f 90be
00000330: 860a d73d 7b19 e5bc ec8f 31bd ba57 6cbd
00000340: aae0 9a3c 93df 4e3e 58d3 16bd 353f 8d3c
00000350: bfef b4be 85d0 9a3e c5c0 ef3e 1969 b43e
00000360: ffb9 e33e 7bfc 48be 6014 efbd 4ede e23e
00000370: 4880 a9be 5321 b63e e8bc a1be 5ad2 00bf
00000380: 2707 3e3e 0d35 b5be ece1 01be 671c a93e
00000390: 9c52 903e a235 d83e 26f5 9c3e 2ab8 03bf
000003a0: c124 4c3e 6943 42bd e8b0 67be ae85 913e
000003b0: c27c ccbe 1c4c 2c3e 96dd 073f 4a37 96be
000003c0: f3d5 d7be 3085 483e 94e3 003e 76e1 033c
000003d0: 4303 aabe 5228 ee3d ed64 98be ccf9 8fbe
000003e0: 2919 09be b34f f93e 4acf e63e 0b6a 803c
000003f0: a333 9abe 7e13 84ba afb9 24bd caa9 c0be

transformer.transformers.0.predictor.bn1.weight f4 [32]
0.55971617 0.6259311 0.8099302 0.13308522 0.7209825 1.90572 0.34031513 1.1288676
0.17522617 0.44358322 0.87656283 0.41196984 0.21438093 0.21510442 0.57082534 0.59419143
0.2330508 0.78381914 0.022247287 0.61391795 1.0289173 1.153476 0.41771263 0.17727493
0.18619181 0.2646623 0.94528687 0.18562086 0.25581402 0.4637767 0.8468177 0.9411281
00000000: 8f49 0f3f 053d 203f 9657 4f3f 7e47 083e
00000010: 4f92 383f a2ee f33f c93d ae3e bc7e 903f
00000020: 7d6e 333e 571d e33e 6c66 603f b6ed d23e
00000030: ad86 5b3e 5544 5c3e 9c21 123f ee1c 183f
00000040: dea4 6e3e 5fa8 483f f13f b63c ba29 1d3f
00000050: 90b3 833f 1aa5 933f 6ede d53e 8f87 353e
00000060: 11a9 3e3e d181 873e 52fe 713f 6513 3e3e
00000070: 0efa 823e 2474 ed3e 0bc9 583f c5ed 703f

transformer.transformers.0.predictor.bn1.bias f4 [32]
-0.25092322 0.25547957 0.56579876 -0.07355281 0.049373526 0.82155704 0.20788427 0.5220387
0.1525942 0.19075072 0.27097 -0.16323483 0.17888238 -0.15384719 0.14109446 0.35610956
0.30166835 0.15617673 -0.06173106 0.3805274 0.3421453 0.18745367 -0.0051377085 0.2478023
0.08020817 0.20128673 0.7481848 0.31363586 -0.07426655 0.016367035 0.39441738 -0.21954551
00000000: 0279 80be 38ce 823e 30d8 103f dba2 96bd
00000010: e53b 4a3d 9051 523f 9ddf 543e 54a4 053f
00000020: a741 1c3e 2854 433e 94bc 8a3e 0827 27be
00000030: f12c 373e 1e8a 1dbe 117b 103e fe53 b63e
00000040: 4674 9a3e cbec 1f3e b5d9 7cbd 7dd4 c23e
00000050: ab2d af3e dbf3 3f3e 395a a8bb e3bf 7d3e
00000060: 2e44 a43d 1c1e 4e3e 0a89 3f3f e194 a03e
00000070: 1019 98bd 2914 863c 13f1 c93e 8ad0 60be

transformer.transformers.0.predictor.bn1.running_mean f4 [32]
0.04004923 -0.10366017 0.026017461 -0.12091785 0.15120023 -0.5363298 0.19110936 -0.3376061
0.07883411 -0.007746614 -0.28012824 0.07814094 0.24962485 0.10398763 0.11643683 -0.1262864
0.31950787 -0.30239275 -0.16068037 0.32950085 -0.34239256 -0.10200608 -0.08280053 0.17132984
-0.006264225 0.09327497 -0.006435973 0.0072899936 -0.08420557 0.05742534 -0.0008440969 -0.007547618
00000000: a90a 243d c94b d4bd 9222 d53c c7a3 f7bd
00000010: 3cd4 1a3e e94c 09bf 2cb2 433e b5da acbe
00000020: c773 a13d 4fd7 fdbb f86c 8fbe 5b08 a03d
00000030: a89d 7f3e 77f7 d43d 6f76 ee3d 3951 01be
00000040: 8996 a33e 39d3 9abe 6589 24be 56b4 a83e
00000050: 144e afbe 90e8 d0bd 5393 a9bd 1771 2f3e
00000060: 2144 cdbb f306 bf3d dbe4 d2bb e6e0 ee3b
00000070: f873 acbd d536 6b3d 6246 5dba 0252 f7bb

transformer.transformers.0.predictor.bn1.running_var f4 [32]
0.3245595 0.2818168 0.095642 0.46168017 1.0829077 6.3275275 1.1310148 2.6465714
0.32666454 0.2937329 2.4991944 0.68197644 1.7637997 0.39071715 0.47764206 0.5192409
2.27774 2.9761598 0.6551078 2.482236 2.7644053 0.6907621 0.18925805 0.730363
0.3610527 0.621868 0.3020352 0.14786004 0.6505477 0.34514812 0.21432145 0.2707955
00000000: aa2c a63e 4b4a 903e f4df c33d 5861 ec3e
00000010: b89c 8a3f 1b7b ca40 18c5 903f 6d61 2940
00000020: 9340 a73e 2964 963e cdf2 1f40 0296 2e3f
00000030: 30c4 e13f 140c c83e 808d f43e f9ec 043f
00000040: 7ec6 1140 6779 3e40 25b5 273f f4dc 1e40
00000050: 04ec 3040 c9d5 303f ddcc 413e 12f9 3a3f
00000060: e6db b83e be32 1f3f 5ca4 9a3e 9f68 173e
00000070: 4b8a 263f 41b7 b03e 1577 5b3e b5a5 8a3e

transformer.transformers.0.predictor.conv2.weight f4 [32, 32, 3, 3]
-0.088247836 -0.041074283 0.11019484 0.29078022 -0.076876566 -0.057223096 0.07710857 -0.016024943
-0.06262657 -0.1852345 -0.16830245 -0.107004695 0.2523925 -0.06582681 -0.03063049 0.17446157
-0.09229499 -0.07146583 0.07197435 -0.32339126 -0.12435521 0.32622534 0.11465166 -0.08699996
0.46077418 -0.19617295 -0.34825394 -0.18380779 -0.16396268 -0.11769747 -0.11269431 -0.12159332
-0.1263085 0.03588266 -0.0008074232 -0.10935079 0.44813883 -0.09754083 -0.13533762 0.23835957
-0.10616773 -0.19774228 -0.14349324 -0.09304911 -0.041424837 -0.2444028 -0.072841905 -0.13035676
0.20772007 0.6014078 0.20455854 0.61420125 0.30907473 0.19625194 0.21396987 -0.118610986
-0.14632072 0.24002536 -0.08793021 -0.18661821 -0.035009995 -0.15943494 -0.13068429 -0.15144269
-0.095121324 -0.18406463 0.34880954 0.46168193 0.15714844 0.6541668 0.2433864 0.1716916
0.018919077 -0.103322454 -0.0051069544 -0.060385387 -0.14753819 -0.13820644 -0.00028928052 -0.07159804
-0.24193929 0.16954602 -0.10081682 -0.25827944 0.23002842 -0.19338593 -0.17579843 -0.19495279
0.029239466 0.06481697 -0.26756606 0.04917564 -0.2705409 -0.24781886 0.1558545 0.21094668
0.25288773 0.34517628 0.24924469 0.23957677 -0.18152785 0.033463825 0.117511526 -0.04747606
-0.020019177 -0.07579814 -0.1941042 -0.10177558 0.20884384 -0.12511207 -0.15139061 0.09999547
-0.2062542 -0.13036083 -0.1418609 -0.08971925 -0.053938787 -0.20980948 0.089585766 0.28571987
-0.074022554 0.18798512 -0.13785563 0.46023813 0.13185808 -0.09057647 0.030458385 -0.053308267
-0.15095134 -0.1419526 -0.041522287 -0.16402628 -0.2590234 -0.16112939 0.04911894 -0.032034706
-0.24537554 -0.21633653 0.3442349 0.0227938 -0.07329667 0.15361644 -0.1726546 -0.18300408
0.073214516 -0.049693294 -0.0891181 -0.12175665 -0.22038528 -0.2274795 -0.16030437 -0.10940287
-0.10733922 -0.4910627 0.023699805 -0.047423538 -0.26156586 0.121578015 0.23249787 0.5483878
0.44490626 0.08791458 -0.10081112 -0.07682517 -0.071023226 0.22443616 -0.07163534 -0.045833375
0.2645805 0.012316753 0.036511052 0.035225943 -0.07130417 -0.10509353 -0.08808938 -0.3117354
-0.15762292 -0.12724915 -0.109386824 -0.22198038 -0.52449256 -0.11307071 0.03738703 -0.26844978
0.16669486 0.16626987 0.47038603 0.3494401 0.10928645 -0.24642916 -0.100690834 0.16702923
-0.17090306 0.015453024 0.037332762 0.17827952 0.022468852 -0.034376554 0.009415635 -0.01902515
-0.36440355 0.051442225 0.27698004 -0.020937907 0.25625393 -0.1928852 -0.009622539 0.13454263
-0.12139604 -0.14750437 0.057420585 -0.0038090888 -0.08318108 -0.22058061 -0.07530524 -0.057001706
-0.23973098 -0.14764813 -0.07040983 0.16658664 -0.26374438 -0.075810194 0.3150662 0.014801434
-0.229727 -0.11085296 -0.13338374 0.09813299 -0.23770577 -0.20868732 -0.0967801 -0.11808703
-0.031200076 -0.21849258 0.0066353246 0.09743573 0.07239606 0.029867372 -0.35042998 -0.07623057
-0.0012803939 0.088057555 -0.10320508 0.040598534 -0.04665088 -0.20761113 -0.027202923 0.11790726
-0.117609754 -0.20923747 0.032965746 0.29330304 -0.12478764 -0.07769956 0.030476278 -0.13002297
00000000: 48bb b4bd 823d 28bd d5ad e13d 25e1 943e
00000010: 7671 9dbd c462 6abd 19eb 9d3d be46 83bc
00000020: 5c42 80bd 1dae 3dbe 7a57 2cbe 4725 dbbd
00000030: 9739 813e 35d0 86bd cbec fabc 0ea6 323e
00000040: 2805 bdbd ad5c 92bd 4a67 933d 8a93 a5be
00000050: f2ad febd 0207 a73e 7dce ea3d 092d b2bd
00000060: 98ea eb3e 90e1 48be 574e b2be 1c38 3cbe
00000070: d5e5 27be 5f0b f1bd 46cc e6bd eb05 f9bd
00000080: 0457 01be b2f9 123d 41a9 53ba 4ff3 dfbd
00000090: 7472 e53e 7dc3 c7bd f295 0abe 8814 743e
000000a0: 786e d9bd f47c 4abe e4ef 12be 8890 bebd
000000b0: 17ad 29bd ba44 7abe 232e 95bd 3e7c 05be
000000c0: 92b4 543e ddf5 193f cb77 513e 4b3c 1d3f
000000d0: 0b3f 9e3e 45f6 483e eb1a 5b3e 51ea f2bd
000000e0: 19d5 15be 35c9 753e c114 b4bd d818 3fbe
000000f0: a466 0fbd ea42 23be 1ad2 05be cb13 1bbe
00000100: f8ce c2bd 707b 3cbe 2a97 b23e 9361 ec3e
00000110: 85eb 203e 7a77 273f 493a 793e eccf 2f3e
00000120: 2efc 9a3c b99a d3bd 3d58 a7bb ab56 77bd
00000130: 4014 17be fd85 0dbe 93aa 97b9 fea1 92bd
00000140: efbe 77be 799d 2d3e 0d79 cebd 343d 84be
00000150: 928c 6b3e f606 46be 8104 34be b4a1 47be
00000160: 9b87 ef3c c2be 843d 6bfe 88be 656c 493d
00000170: 5684 8abe 3ac4 7dbe 5298 1f3e 6802 583e
00000180: 807a 813e f2ba b03e 003a 7f3e 9d53 753e
00000190: 70e2 39be 5d11 093d e2a9 f03d 4276 42bd
000001a0: 42ff a3bc 0e3c 9bbd 40c3 46be b76f d0bd
000001b0: 29db 553e 611d 00be 2406 1bbe 6dca cc3d
000001c0: 4d34 53be 4f7d 05be fc43 11be babe b7bd
000001d0: ebee 5cbd 4cd8 56be be78 b73d e049 923e
000001e0: 2399 97bd 2c7f 403e 072a 0dbe 55a4 eb3e
000001f0: ce05 073e 2880 b9bd dd83 f93c c559 5abd
00000200: fd92 1abe 065c 11be 4613 2abd 81f6 27be
00000210: b79e 84be 1aff 24be f130 493d d336 03bd
00000220: ba43 7bbe 5387 5dbe 8f3f b03e 10ba ba3c
00000230: 911c 96bd a14d 1d3e 5ecc 30be 6c65 3bbe
00000240: 7ef1 953d 328b 4bbd 8d83 b6bd 8d5b f9bd
00000250: aeac 61be 63f0 68be d426 24be 9d0e e0bd
00000260: aad4 dbbd 926c fbbe 1826 c23c 2f3f 42bd
00000270: f6eb 85be e5fd f83d ec13 6e3e 2563 0c3f
00000280: c1ca e33e 8f0c b43d 0f76 cebd 8456 9dbd
00000290: a074 91bd 98d2 653e 8db5 92bd c7bb 3bbd
000002a0: 1877 873e 35cc 493c 9d8c 153d 1449 103d
000002b0: ec07 92bd 473b d7bd 3468 b4bd c89b 9fbe
000002c0: e767 21be 9a4d 02be 3306 e0bd d34e 63be
000002d0: 2545 06bf 9e91 e7bd 2423 193d 4072 89be
000002e0: 0fb2 2a3e a642 2a3e 70d6 f03e d0e9 b23e
000002f0: 93d1 df3d ed57 7cbe ff36 cebd b609 2b3e
00000300: 3601 2fbe ae2e 7d3c 3dea 183d e88e 363e
00000310: 9910 b83c 6ece 0cbd 0944 1a3c a2da 9bbc
00000320: 1a93 babe 15b5 523d 54d0 8d3e f985 abbc
00000330: b733 833e b383 45be dba7 1dbc 8bc5 093e
00000340: 7d9e f8bd 630b 17be d931 6b3d e8a1 79bb
00000350: d85a aabd e2df 61be a239 9abd 9f7a 69bd
00000360: 0a7c 75be 1231 17be 0733 90bd b095 2a3e
00000370: 8109 87be 6042 9bbd 5b50 a13e b781 723c
00000380: 8e3d 6bbe e006 e3bd bf95 08be f3f9 c83d
00000390: 2469 73be 21b2 55be a534 c6bd 9dd7 f1bd
000003a0: 4d97 ffbc 85bc 5fbe 236d d93b 628c c73d
000003b0: 6344 943d 6bac f43c 8f6b b3be c61e 9cbd
000003c0: e4d2 a7ba 8557 b43d 2f5d d3bd a64a 263d
000003d0: fe14 3fbd 0398 54be aad8 debc 5d79 f13d
000003e0: 62dd f0bd 5942 56be 1707 073d d12b 963e
000003f0: aa90 ffbd f220 9fbd 63a9 f93c be24 05be

transformer.transformers.0.predictor.bn2.weight f4 [32]
0.7939846 0.32097518 0.2225061 0.3739749 0.48016152 0.3281264 0.48769715 0.49744454
0.3112515 0.3120097 0.63207245 0.21752274 0.6980734 0.619469 0.6968001 0.60490274
0.21164615 0.44313908 0.6294037 -0.014379571 0.04284098 0.4016517 0.4485629 0.6899968
0.59869814 0.2711344 0.3516763 0.25820938 0.29847974 0.39826986 0.44888344 0.6469367
00000000: 9342 4b3f dc56 a43e a4d8 633e a379 bf3e
00000010: bbd7 f53e 2f00 a83e 71b3 f93e 0db1 fe3e
00000020: 5b5c 9f3e bcbf 9f3e 80cf 213f 48be 5e3e
00000030: f0b4 323f 8595 1e3f 7e61 323f e8da 1a3f
00000040: c5b9 583e 20e3 e23e 9a20 213f 4b98 6bbc
00000050: 067a 2f3d 4ba5 cd3e 09aa e53e a1a3 303f
00000060: 4844 193f 21d2 8a3e ea0e b43e 0534 843e
00000070: 56d2 983e 07ea cb3e 0dd4 e53e a59d 253f

transformer.transformers.0.predictor.bn2.bias f4 [32]
-0.005229216 -0.0682098 0.11150869 0.18930283 -0.025624828 0.10299624 0.031826947 -0.026217585
-0.1847819 -0.0071429634 -0.031086225 0.11933991 -0.12940517 -0.103569984 -0.18521278 -0.0471703
-0.019956045 -0.4003586 -0.05638681 0.024438636 -0.11459834 -0.08930017 0.16233706 -0.03672281
0.01157836 0.027192581 0.028971162 -0.05079788 -0.100934066 0.008684443 -0.03344805 0.1644198
00000000: d859 abbb 94b1 8bbd ab5e e43d 9ad8 413e
00000010: 29eb d1bc b1ef d23d f95c 023d 43c6 d6bc
00000020: 7737 3dbe 850f eabb 8aa8 febc 7c68 f43d
00000030: ca82 04be 801c d4bd 6ba8 3dbe a535 41bd
00000040: dc7a a3bc cdfb ccbe dbf5 66bd 8933 c83c
00000050: 89b2 eabd 02e3 b6bd b03b 263e a86a 16bd
00000060: 29b3 3d3c fac2 de3c ee54 ed3c 7011 50bd
00000070: 85b6 cebd 3249 0e3c d300 09bd aa5d 283e

transformer.transformers.0.predictor.bn2.running_mean f4 [32]
1.0385891 2.158859 -6.1243057 -1.8467764 -0.74766386 -1.031006 -5.749631 6.9134345
-4.0555935 -4.1706657 -3.9432752 1.0852212 -3.5574515 -2.532523 -2.1759527 -3.81036
-4.065448 2.0697863 -7.273482 -1.2134069 0.8024124 -3.4692383 -1.8814754 10.285654
-4.814812 -3.5007358 0.6775465 0.94381756 -5.453904 -6.1311207 -6.2244534 4.107595
00000000: 7df0 843f bf2a 0a40 50fa c3c0 2b63 ecbf
00000010: e666 3fbf 01f8 83bf fafc b7c0 db3a dd40
00000020: 6cc7 81c0 1876 85c0 9f5e 7cc0 87e8 8a3f
00000030: 49ad 63c0 db14 22c0 cf42 0bc0 f0dc 73c0
00000040: 2618 82c0 6177 0440 5dc0 e8c0 eb50 9bbf
00000050: e66a 4d3f 0008 5ec0 30d4 f0bf 0a92 2441
00000060: f112 9ac0 0e0c 60c0 b073 2d3f 079e 713f
00000070: 6286 aec0 2432 c4c0 b92e c7c0 6b71 8340

transformer.transformers.0.predictor.bn2.running_var f4 [32]
19.085716 9.2696705 11.977877 6.696912 9.02713 9.948814 17.014812 25.344522
8.988321 25.166636 12.653705 17.27501 22.08165 19.453857 12.975122 6.5569444
8.965831 5.187976 26.618725 1.5212926 6.277007 5.776451 15.947991 64.27672
57.60692 15.979153 41.205116 32.39913 28.23699 20.46195 20.012852 17.032883
00000000: 8caf 9841 9250 1441 62a5 3f41 1a4d d640
00000010: 206f 1041 582e 1f41 561e 8841 95c1 ca41
00000020: 2ad0 0f41 4555 c941 9375 4a41 3833 8a41
00000030: 38a7 b041 80a1 9b41 1a9a 4f41 7dd2 d140
00000040: 0b74 0f41 e603 a640 26f3 d441 b7b9 c23f
00000050: 3edd c840 b0d8 b840 f92a 7f41 ae8d 8042
00000060: 7c6d 6642 9caa 7f41 0ad2 2442 b698 0142
00000070: 5be5 e141 13b2 a341 521a a041 5843 8841

transformer.transformers.0.predictor.conv_u.weight f4 [1, 32, 3]
0.033859774 -0.036302216 0.05076444 0.070772335 0.049038693 0.024058878 -0.09514505 0.007785335
-0.07219902 0.09154688 0.06406449 -0.0060972944 0.0610947 -0.08137379 -0.09399473 -0.054315574
0.052044794 0.060730755 -0.026104696 -0.006510414 0.036430717 0.01582402 0.025807872 0.08504124
-0.050814737 -0.09859969 0.0552835 0.09452033 0.085336536 -0.025596827 -0.025108896 -0.011540927
-0.05817193 -0.086866856 0.0041254163 -0.014811449 -0.0117664635 -0.04335465 -0.0770917 0.0596492
0.006997511 -0.016449213 0.08364305 0.0029572248 0.03549771 0.08984423 0.044038698 -0.0019742101
0.048667908 0.046920523 0.02166427 -0.099763945 0.050463125 -0.05669153 0.044102073 -0.0158884
0.03870091 0.021214016 -0.042149033 0.061555147 -0.073892444 -0.08220759 0.023755893 0.090296
-0.009570494 0.08197974 -0.0350774 0.038148016 -0.050965983 0.003218472 -0.045532387 -0.060599748
-0.061407182 0.04763989 -0.06739858 -0.010686748 0.055141836 0.08738792 0.0039769113 -0.09133793
0.07094738 0.08300991 0.057058185 -0.049347952 -0.039073132 0.05509965 -0.018060334 -0.089215085
-0.0012031719 -0.006839037 0.0012339428 -0.00049328804 -0.10081187 -0.10081844 -0.050996374 -0.06947666
00000000: 8cb0 0a3d a2b1 14bd 60ee 4f3d 16f1 903d
00000010: ccdc 483d 2017 c53c 68db c2bd 201c ff3b
00000020: 14dd 93bd ee7c bb3d 3e34 833d d0cb c7bb
00000030: 703e 7a3d 4da7 a6bd 4f80 c0bd 027a 5ebd
00000040: ec2c 553d d0c0 783d 84d9 d5bc 5055 d5bb
00000050: 6038 153d 60a1 813c 086b d33c 1a2a ae3d
00000060: 1d23 50bd a2ee c9bd f470 623d e093 c13d
00000070: ecc4 ae3d 70b0 d1bc 2cb1 cdbc 2816 3dbc
00000080: b145 6ebd 40e7 b1bd 802e 873b b8ab 72bc
00000090: 20c8 40bc a594 31bd 41e2 9dbd b852 743d
000000a0: 604b e53b 80c0 86bc 0c4d ab3d 00ce 413b
000000b0: 0c66 113d 4000 b83d ec61 343d c061 01bb
000000c0: 0058 473d bc2f 403d 4479 b13c 0a51 ccbd
000000d0: 6cb2 4e3d 6135 68bd 60a4 343d 6428 82bc
000000e0: d884 1e3d 04c9 ad3c 77a4 2cbd 4021 7c3d
000000f0: ec54 97bd 745c a8bd b89b c23c 1ced b83d
00000100: 90cd 1cbc fee4 a73d 52ad 0fbd 1841 1c3d
00000110: b5c1 50bd 00ed 523b 2b80 3abd 7137 78bd
00000120: 1986 7bbd 0c22 433d 4408 8abd 7817 2fbc
00000130: 68dc 613d 70f8 b23d c050 823b 610f bbbd
00000140: dc4c 913d 1a01 aa3d d8b5 693d 1421 4abd
00000150: 260b 20bd 2cb0 613d 44f3 93bc 66b6 b6bd
00000160: c0b3 9dba 001a e0bb 40bc a13a 0050 01ba
00000170: 7476 cebd e679 cebd 93e1 50bd c749 8ebd

transformer.transformers.0.predictor.conv_v.weight f4 [1, 32, 3]
-0.18190847 -0.02610997 0.23893729 -0.104700156 -0.13447124 -0.1687526 0.24531393 0.08476867
0.05708663 0.28082237 -0.09157707 0.040074043 0.10815169 -0.015619863 0.01877389 0.07948796
0.11754861 0.19987497 0.26206717 0.033497386 -0.110416576 -0.145082 -0.27341753 -0.15879072
-0.06276699 0.045870967 0.15504724 0.15981606 0.084783 -0.052022815 0.050697345 0.15277275
0.23130287 0.22113954 -0.054944076 -0.11884498 -0.026883814 0.18211894 0.25713828 0.25019976
0.22871059 0.059298083 -0.13103962 0.015628174 0.25526243 0.19163194 0.030222826 -0.026948385
0.008203331 0.16171385 0.19526307 -0.09740493 0.013837332 -0.18829319 0.14411509 0.11811424
-0.040922232 0.0061591407 -0.039305434 0.01680784 0.05177377 -0.097795196 -0.069839254 0.21826832
0.07960058 0.019825086 0.30623898 -0.050877262 -0.25762746 -0.17592658 -0.3576199 -0.37322265
0.11870712 0.38208398 0.014717916 0.24575485 -0.0679613 -0.15562387 -0.009480681 0.42709076
0.26112142 -0.26188022 -0.1780525 -0.094008364 0.17683849 0.22221954 0.038472664 0.11879334
0.038277287 -0.028647855 0.008684887 0.15339182 0.098494515 0.06409804 -0.030939234 -0.18405408
00000000: 3746 3abe 93e4 d5bc faab 743e 096d d6bd
00000010: d4b2 09be 7bcd 2cbe 9333 7b3e 329b ad3d
00000020: acd3 693d f3c7 8f3e c28c bbbd ae24 243d
00000030: a27e dd3d 74ea 7fbc b3cb 993c 95ca a23d
00000040: 53bd f03d 06ac 4c3e ab2d 863e 8e34 093d
00000050: 1622 e2bd 6090 14be 62fd 8bbe 099a 22be
00000060: fb8b 80bd 32e3 3b3d b4c4 1e3e d2a6 233e
00000070: b6a2 ad3d e015 55bd 05a8 4f3d 7670 1c3e
00000080: a9da 6c3e 6772 623e 0a0d 61bd ff64 f3bd
00000090: 723b dcbc 637d 3a3e a1a7 833e 2f1a 803e
000000a0: 1c33 6a3e 8ce2 723d 402f 06be a806 803c
000000b0: c2b1 823e 2a3b 443e dc95 f73c dcc2 dcbc
000000c0: 4467 063c 5198 253e 0bf3 473e 3c7c c7bd
000000d0: fab5 623c eecf 40be e892 133e e1e5 f13d
000000e0: 129e 27bd 9ed2 c93b bcfe 20bd 98b0 893c
000000f0: bc10 543d d948 c8bd e207 8fbd bb81 5f3e
00000100: a105 a33d 3868 a23c 5bcb 9c3e ad64 50bd
00000110: bfe7 83be 1926 34be f519 b7be 0a17 bfbe
00000120: b81c f33d 83a0 c33e 6a23 713c 29a7 7b3e
00000130: 4b2f 8bbd dd5b 1fbe dc54 1bbc a4ab da3e
00000140: b5b1 853e 2a15 86be 6553 36be 7587 c0bd
00000150: 2615 353e 858d 633e 8395 1d3d ec49 f33d
00000160: a5c8 1c3d e8ae eabc 0e4b 0e3c bf12 1d3e
00000170: 7eb7 c93d d545 833d 4774 fdbc ac78 3cbe

transformer.transformers.1.predictor.conv1.weight f4 [32, 1, 3, 3]
0.32618812 0.15854096 0.32994425 0.061697938 -0.16555937 0.34890643 0.011334712 -0.26839986
-0.07513652 0.3442045 -0.14498837 -0.0023086646 -0.34326726 -0.300527 -0.40835825 -0.20643169
-0.5001925 -0.32478008 -0.18805072 0.08761104 -0.08756789 -0.103611596 0.15062335 0.41713068
-0.16764948 0.32510737 0.6904596 0.59350514 0.25313202 -0.39912817 0.38368833 -0.137369
-0.021811433 0.20859146 -0.053754367 -0.004545333 -0.08815015 0.1988862 0.15307519 -0.6089309
-0.12380742 -0.40449426 -0.5661152 0.16385289 -0.19139919 0.23643075 -0.3999897 -0.1069971
-0.31935716 -0.39455056 0.07029041 0.31479025 0.24998017 -0.3089385 0.11261934 -0.34916654
0.3010388 0.49962154 -0.4755377 0.2688592 0.06775464 -0.407074 0.1693558 -0.48476914
-0.43873462 0.15240586 -0.35623744 -0.510893 -0.22403781 0.13098681 0.010022643 0.20897812
-0.27210304 -0.22357373 0.1704652 0.31789315 0.2437062 -0.17478682 -0.13127881 0.19573826
-0.49502942 -0.024586858 0.6207618 -0.12279763 0.39033812 0.29978192 0.2702029 0.34895542
-0.30713767 -0.16262859 -0.16095151 0.45365477 -0.11305012 -0.1943148 0.21017137 -0.34112635
-0.39530185 0.14406984 -0.10875391 -0.017663408 0.17050272 -0.4712927 0.015648888 0.025756588
-0.2742662 0.07322546 -0.3244538 -0.5492465 -0.42397004 0.556283 0.11854274 -0.12745082
0.19700298 -0.45670265 0.3503387 -0.18145902 -0.029290736 -0.12587246 0.048620183 -0.14351118
-0.072282486 -0.28280464 0.5515399 0.38972038 -0.28619993 0.25247416 0.017859992 0.38776538
-0.0839191 -0.04577894 1.0769882 -0.027618326 -0.55617625 0.2702003 0.17909047 0.27426103
-0.53535897 0.16935183 0.038881715 -0.02651352 -0.0049602985 -0.48467737 0.5147955 -0.33699617
-0.28126186 -0.2754532 0.06497228 -0.46031144 -0.022728728 0.030029085 -0.4432706 0.024110677
0.25557476 -0.1160252 0.18355393 0.16680472 -0.30463538 0.3556036 -0.52326304 -0.058408145
0.5212942 -0.26524612 -0.28266937 -0.46644953 -0.21867359 0.05226571 -0.030142544 -0.09120568
0.4888376 0.08180316 -0.03606668 0.45673513 -0.1689098 -0.005880726 0.52057445 -0.105392694
-0.23296827 0.13021472 0.30687565 0.46496212 -0.5104566 0.36808494 -0.14178163 -0.45073205
-0.09336412 0.031003626 0.098473206 0.33497515 -0.10872219 -0.036920678 -0.3218056 -0.08608185
0.15096185 -0.61320204 0.31034648 0.0615819 -0.5913731 -0.324431 0.18998644 0.39792368
-0.16160631 -0.15402408 0.4482531 -0.12158122 -0.07898714 -0.1011449 0.31888565 -0.27995184
-0.32797608 0.07657429 -0.3763248 -0.47418982 0.15569846 -0.10460794 -0.08131034 -0.14755145
0.1375103 0.034377392 -0.08502771 0.2862483 -0.9397509 0.22810416 -0.1396876 -1.1728407
-0.06956439 0.1655174 -0.23295516 -0.13995515 0.17135702 0.08556425 -0.84329855 -0.21126305
0.094337314 -0.9961725 -0.4400758 0.15975614 0.60313183 -0.116229676 -0.24598768 0.48362494
0.08160228 0.3134278 -0.07921449 0.22433704 -0.21349959 0.5330478 -0.022585278 0.004651816
0.19722967 0.093940474 -0.20717256 0.45718673 -0.3603361 -0.35911155 -0.09950813 0.20273288
00000000: 2102 a73e 9058 223e 74ee a83e fab6 7c3d
00000010: 6588 29be dda3 b23e 3ab5 393c b56b 89be
00000020: 2de1 99bd 923b b03e d577 14be f74c 17bb
00000030: bac0 afbe adde 99be 5514 d1be d462 53be
00000040: 9e0c 00bf 9349 a6be 5e90 40be 6b6d b33d
00000050: cb56 b3bd 5132 d4bd 023d 1a3e 2792 d53e
00000060: 4eac 2bbe 7974 a63e f6c1 303f f4ef 173f
00000070: 859a 813e 875a ccbe cc72 c43e 76aa 0cbe
00000080: e4ad b2bc 0099 553e 8a2d 5cbd 04f1 94bb
00000090: 1188 b4bd d3a8 4b3e bebf 1c3e e5e2 1bbf
000000a0: bf8e fdbd df19 cfbe edec 10bf 0dc9 273e
000000b0: 26fe 43be e71a 723e 73cb ccbe 4c21 dbbd
000000c0: c882 a3be 8802 cabe 6bf4 8f3d 302c a13e
000000d0: cdfa 7f3e 302d 9ebe f8a4 e63d f5c5 b2be
000000e0: c221 9a3e 65ce ff3e ad79 f3be eaa7 893e
000000f0: f2c2 8a3d 016c d0be 9b6b 2d3e a933 f8be
00000100: d3a1 e0be 4810 1c3e c164 b6be e2c9 02bf
00000110: 2b6a 65be 6821 063e 0336 243c 5cfe 553e
00000120: 1751 8bbe 83f0 64be 6e8e 2e3e e4c2 a23e
00000130: 1e8e 793e 51fb 32be f46d 06be 9c6f 483e
00000140: 7f74 fdbe 616a c9bc 3fea 1e3f 537d fbbd
00000150: 66da c73e 047d 993e 0958 8a3e 49aa b23e
00000160: 2641 9dbe 1c88 26be 79d0 24be 7045 e83e
00000170: d286 e7bd 75fa 46be 2a37 573e 1da8 aebe
00000180: 0165 cabe 0b87 133e 5fba debd dab2 90bc
00000190: 4498 2e3e 474d f1be 1932 803c 7bff d23c
000001a0: 9f6c 8cbe 3bf7 953d cf1e a6be 6b9b 0cbf
000001b0: 9a12 d9be 9068 0e3f 89c6 f23d 7882 02be
000001c0: 26bb 493e eed4 e9be 985f b33e 65d0 39be
000001d0: 20f3 efbc b6e4 00be f525 473d 98f4 12be
000001e0: d708 94bd c5cb 90be b831 0d3f 6e89 c73e
000001f0: cc88 92be 4b44 813e 1e4f 923c 2f89 c63e
00000200: c7dd abbd b382 3bbd c0da 893f d43f e2bc
00000210: 9161 0ebf b257 8a3e 7e63 373e f16b 8c3e
00000220: 490d 09bf 916a 2d3e 6f42 1f3d e232 d9bc
00000230: 008a a2bb a227 f8be a3c9 033f c38a acbe
00000240: 8e01 90be 3408 8dbe 3010 853d f1ad ebbe
00000250: 9931 babc 8eff f53c 5df4 e2be c183 c53c
00000260: b2da 823e 9f9e edbd 90f5 3b3e dbce 2a3e
00000270: 2bf9 9bbe ad11 b63e 91f4 05bf 613d 6fbd
00000280: 8973 053f 57ce 87be 0aba 90be 79d2 eebe
00000290: f8eb 5fbe 9214 563d 7fed f6bc 0bca babd
000002a0: ec48 fa3e 6a88 a73d a8ba 13bd 30d9 e93e
000002b0: b1f6 2cbe 1bb3 c0bb 5e44 053f 20d8 d7bd
000002c0: 3c8f 6ebe 0257 053e ce1e 9d3e 840f ee3e
000002d0: 49ad 02bf a175 bc3e 342f 11be 5ac6 e6be
000002e0: b035 bfbd 51fb fd3c 52ac c93d dd81 ab3e
000002f0: bda9 debd 233a 17bd b4c3 a4be ae4b b0bd
00000300: be95 1a3e cffa 1cbf bce5 9e3e 4d3d 7c3d
00000310: 3a64 17bf d21b a6be ce8b 423e a7bc cb3e
00000320: 207c 25be 7db8 1dbe 6e81 e53e 93ff f8bd
00000330: 02c4 a1bd 0f25 cfbd fb44 a33e d955 8fbe
00000340: 7bec a7be fbd2 9c3d a5ad c0be 02c9 f2be
00000350: 6b6f 1f3e b03c d6bd 0986 a6bd ba17 17be
00000360: 80cf 0c3e 4fcf 0c3d 0223 aebd 238f 923e
00000370: 8493 70bf 2394 693e 440a 0fbe a51f 96bf
00000380: c677 8ebd 657d 293e cc8b 6ebe 6750 0fbe
00000390: 3778 2f3e 4f3c af3d 6ae2 57bf 5755 58be
000003a0: ec33 c13d 2905 7fbf 9e51 e1be 1d97 233e
000003b0: d966 1a3f d309 eebd 32e4 7bbe b09d f73e
000003c0: 191f a73d 9c79 a03e 353b a2bd 9cb8 653e
000003d0: a39f 5abe d275 083f c304 b9bc 436e 983b
000003e0: 93f6 493e dd63 c03d 0b25 54be 6114 ea3e
000003f0: f97d b8be 78dd b7be ebca cbbd 3599 4f3e

transformer.transformers.1.predictor.bn1.weight f4 [32]
-0.0116282515 0.87426376 0.03265188 0.42686802 1.2913382 0.6537156 0.5959755 0.35487285
0.69132555 0.35558888 0.42239586 0.7186972 0.40366268 0.44670746 0.59846115 0.7871807
0.02428505 0.36475137 0.75448036 0.2418742 0.9099581 0.6131489 0.3955647 0.8674941
1.340999 0.95268255 0.48505414 0.5431039 0.36667618 0.45379013 0.35518298 0.7481776
00000000: 6c84 3ebc c0cf 5f3f fabd 053d 728e da3e
00000010: 924a a53f e859 273f da91 183f e5b1 b53e
00000020: b6fa 303f bf0f b63e 4544 d83e 8afc 373f
00000030: e0ac ce3e d7b6 e43e c034 193f ad84 493f
00000040: 71f1 c63c b1c0 ba3e a025 413f dfad 773e
00000050: 04f3 683f 54f7 1c3f 7587 ca3e 1814 5e3f
00000060: dba5 ab3f 01e3 733f 0459 f83e db08 0b3f
00000070: fbbc bb3e 2e57 e83e 8bda b53e 9188 3f3f

transformer.transformers.1.predictor.bn1.bias f4 [32]
-0.5313369 0.37396777 0.8323177 -0.002408653 0.4912816 -0.112130314 -0.36469465 -0.058545295
-0.0030238128 0.048791565 0.10695661 0.19108075 0.42856365 -0.11861 0.010902343 -0.1586694
0.50987643 0.46719235 0.30287254 0.03395321 -0.18112028 0.3403305 -0.00010194875 0.0741348
0.67710024 0.34904975 0.007291587 -0.12353998 0.29750612 0.26808575 0.066666886 0.0075330697
00000000: b205 08bf b478 bf3e c612 553f 7eda 1dbb
00000010: 4389 fb3e 94a4 e5bd 42b9 babe 31cd 6fbd
00000020: 292b 46bb aad9 473d 110c db3d acaa 433e
00000030: b26c db3e cde9 f2bd be9f 323c 3b7a 22be
00000040: 4387 023f d633 ef3e 1c12 9b3e 8512 0b3d
00000050: 9877 39be cd3f ae3e 52cd d5b8 fcd3 973d
00000060: 7156 2d3f a6b6 b23e 44ee ee3b 8702 fdbd
00000070: b952 983e 8942 893e a688 883d f8d7 f63b

transformer.transformers.1.predictor.bn1.running_mean f4 [32]
0.21442397 -0.5628229 0.33417106 0.24491307 -0.44046146 -0.19587548 0.057882085 -0.44966742
-0.10768373 0.3910207 -0.15188546 -0.40036586 -0.0011984383 0.09987561 0.3607289 -0.11599013
-0.329882 -0.015364231 -0.1454988 0.40646577 -0.1421523 -0.4288088 0.21743372 -0.46337906
-0.51072013 -0.566128 0.22315991 0.3154784 -0.056158762 -0.17634149 0.2432422 -0.3031185
00000000: f591 5b3e 2915 10bf 7818 ab3e 7eca 7a3e
00000010: 2a84 e1be 9593 48be c415 6d3d cf3a e6be
00000020: 4a89 dcbd dd33 c83e dd87 1bbe c1fc ccbe
00000030: eb14 9dba 958b cc3d 75b1 b83e 3c8c edbd
00000040: 4be6 a8be 41ba 7bbc a3fd 14be 481c d03e
00000050: 5f90 11be d48c dbbe f2a6 5e3e 0540 edbe
00000060: 8ebe 02bf c4ed 10bf 0884 643e 6386 a13e
00000070: bb06 66bd dd92 34be 7c14 793e 5932 9bbe

transformer.transformers.1.predictor.bn1.running_var f4 [32]
0.65359557 4.216281 2.0388498 1.321713 2.499337 0.6621059 0.25442767 2.9355917
0.24141265 2.1496396 0.36400715 2.332308 0.14898127 0.25562972 2.3818073 0.24776697
1.8648535 0.2044056 0.57460487 2.1768417 0.40978694 2.713892 0.7425384 2.945466
4.279775 4.9092584 1.1869158 1.3260235 0.28155327 0.6838572 0.7277964 1.4837253
00000000: 0a52 273f c6eb 8640 847c 0240 e42d a93f
00000010: 23f5 1f40 c67f 293f 5844 823e bce0 3b40
00000020: e134 773e b293 0940 255f ba3e 8944 1540
00000030: 8c8e 183e e6e1 823e 886f 1840 a0b6 7d3e
00000040: 85b3 ee3f b44f 513e 4e19 133f 6051 0b40
00000050: 98cf d13e 68b0 2d40 ff16 3e3f 8482 3c40
00000060: ebf3 8840 a518 9d40 dbec 973f 23bb a93f
00000070: c027 903e 4411 2f3f dd50 3a3f b6ea bd3f

transformer.transformers.1.predictor.conv2.weight f4 [32, 32, 3, 3]
0.10711238 0.15963577 0.052941173 -0.33060467 0.054513574 -0.14576393 0.009032585 0.32852498
0.090012126 -0.16031842 -0.35090715 -0.21045126 0.064416595 -1.016182 -0.66781676 -0.3599766
-0.35336939 0.095416345 -0.024498358 -0.29399395 0.040659133 0.5091078 -0.1284409 0.71710485
0.024318019 -0.5858439 -0.13279726 -0.5161115 0.002599064 -0.11006897 -0.21352923 -0.061156992
0.022863952 -0.100128606 0.026019685 -0.09435358 -0.017628301 -0.4066898 -0.42412424 0.1361954
-0.40151772 -1.1745706 -0.27385917 -0.28258562 -0.32861227 0.096460305 0.14558296 0.1315066
-0.08475289 0.021118226 -0.058528464 0.13475648 -0.11504199 -0.1999229 -0.049064722 -0.37616017
-0.21970749 -0.1636889 -0.09186237 0.20808361 -0.16190411 -0.055047676 0.28817946 0.03019246
0.10247234 0.12963627 -0.000120465964 0.028433768 -0.10381935 -0.1171366 -0.036033995 -0.00650088
-0.24824122 0.20460261 -0.34040523 0.17334445 -0.10969148 0.018412482 -0.2266229 0.13743716
-0.10452824 -0.26153755 -0.03467253 -0.13861042 -0.0693664 -0.053406913 0.09691189 -0.102439396
0.06598423 -0.1739883 -0.6118392 0.0509688 -0.7599312 -0.19457631 -0.04164101 -0.38929462
-0.59591526 -0.13481238 -0.016579917 -0.29708663 -0.16120663 -0.22103652 -0.15852723 -0.57354146
-0.10426695 -0.35205367 -0.043659847 0.10386199 -0.3752839 0.054911066 -0.33371544 0.0048012366
-0.23608835 0.16928333 -0.42054924 0.33394244 -0.089813024 0.21937503 -0.38117453 -0.011526666
-0.30408722 0.055900615 0.10648268 0.06813543 -0.19007067 0.050471567 -0.21974078 -0.023370419
-0.081844226 -0.049915176 0.08856993 0.018549025 -0.11156834 -0.18531278 -0.18207046 -0.42042884
-0.0024468887 0.051766362 -0.21496353 0.17212522 -0.19561628 -0.19569866 -0.021060545 -0.045630872
-0.030406788 -0.29855216 0.025856055 0.3978854 -0.040826585 0.44924954 -0.06428295 -0.3698034
-0.17469142 -0.59037143 0.12236918 -0.3655158 -0.023371246 0.039945666 -0.41857135 -0.5127712
-0.041137103 -0.2998659 0.03797914 0.28817666 0.086030945 0.2046269 -0.19490698 0.023869574
-0.091856614 -0.11097405 -0.45723474 -0.28414443 0.007415883 -0.098056436 -0.0825725 0.077713616
0.033109903 -0.0869402 -0.06892176 -0.13277829 0.043746136 -0.12640099 0.070706144 -0.08088438
0.054196227 -0.008624898 -0.09626093 -0.0033283362 -0.15424317 -0.1468546 -0.5103327 -0.14022751
-0.056662958 -0.8992147 -0.12921248 -0.41212407 -0.3021418 0.02583465 -0.22411455 -0.08599183
-0.1122178 -0.15128475 0.11561006 0.050293278 -0.039741065 -0.21693008 -0.14383002 0.029470272
-0.21023819 0.07509845 -0.04359192 -0.29998448 -0.25195983 -0.12934531 -0.18654089 -0.11968923
-0.25087708 -0.5322574 -0.24526966 -0.25896046 -0.5705029 -0.2779196 -0.41358724 -0.19085976
0.30311865 -0.3989598 0.0034254387 -0.26693183 -0.20210417 -0.8475277 -0.20755096 -0.5369582
-0.4893181 0.02419331 0.024776345 -0.12723601 -0.0810006 0.068113714 0.051508795 0.120554306
0.05716975 -0.16603148 -0.010922852 -0.049509153 -0.17795725 -0.10534994 -0.13050117 0.055579264
0.17503376 -0.049255222 -0.20385797 -0.058218125 -0.17683959 0.23872775 -0.12129973 0.09179703
00000000: bc5d db3d 8f77 233e d8d8 583d 0445 a9be
00000010: a049 5f3d 2443 15be 68fd 133c 6d34 a83e
00000020: 4758 b83d 832a 24be 1aaa b3be 8980 57be
00000030: d9ec 833d 4012 82bf 0af6 2abf da4e b8be
00000040: d5ec b4be a569 c33d c8b0 c8bc 6086 96be
00000050: 318a 263d e454 023f 0386 03be 2f94 373f
00000060: 9536 c73c def9 15bf 01fc 07be e21f 04bf
00000070: 0f55 2a3b d76b e1bd 68a7 5abe c17f 7abd
00000080: 2f4d bb3c 3a10 cdbd 3c27 d53c 733c c1bd
00000090: 3a69 90bc a539 d0be d026 d9be cf76 0b3e
000000a0: bb93 cdbe 5458 96bf 4537 8cbe 10af 90be
000000b0: de3f a8be fb8c c53d b313 153e aba9 063e
000000c0: ec92 adbd 2100 ad3c 8bbb 6fbd 9afd 093e
000000d0: 239b ebbd 97b8 4cbe 17f8 48bd 1198 c0be
000000e0: 00fb 60be 109e 27be 5722 bcbd df13 553e
000000f0: 31ca 25be ac79 61bd 428c 933e 2e56 f73c
00000100: 05dd d13d 5fbf 043e aca2 fcb8 efed e83c
00000110: 3d9f d4bd 50e5 efbd 6298 13bd 5505 d5bb
00000120: f232 7ebe 5983 513e 9849 aebe 3581 313e
00000130: eda5 e0bd c6d5 963c d50f 68be 54bc 0c3e
00000140: e712 d6bd 40e8 85be c804 0ebd e4ef 0dbe
00000150: f90f 8ebd 35c1 5abd be79 c63d bfcb d1bd
00000160: bd22 873d fd29 32be 7ea1 1cbf a9c4 503d
00000170: da8a 42bf 033f 47be c48f 2abd a051 c7be
00000180: e78d 18bf 420c 0abe 9bd2 87bc bd1b 98be
00000190: 5a13 25be 6657 62be f654 22be 9dd3 12bf
000001a0: e989 d5bd 6140 b4be abd4 32bd 98b5 d43d
000001b0: 3625 c0be 6dea 603d c0dc aabe b153 9d3b
000001c0: 25c1 71be 9c58 2d3e 3b52 d7be 81fa aa3e
000001d0: e4ef b7bd d9a3 603e 4f29 c3be 57da 3cbc
000001e0: 52b1 9bbe 0bf8 643d 9713 da3d 978a 8b3d
000001f0: e3a1 42be 46bb 4e3d ba03 61be 5273 bfbc
00000200: f29d a7bd db73 4cbd 2764 b53d 20f4 973c
00000210: f17d e4bd a2c2 3dbe ae70 3abe 7342 d7be
00000220: fb5b 20bb f708 543d 661f 5cbe 9841 303e
00000230: a24f 48be 3b65 48be 2a87 acbc 70e7 3abd
00000240: a817 f9bc d4db 98be 14d0 d33c a3b7 cb3e
00000250: c739 27bd 0904 e63e c7a6 83bd df56 bdbe
00000260: 4fe2 32be 9522 17bf b19c fa3d e324 bbbe
00000270: 0e75 bfbc 119e 233d fc4e d6be f944 03bf
00000280: 617f 28bd 0688 99be 0490 1b3d e48b 933e
00000290: fe30 b03d b789 513e b295 47be 208a c33c
000002a0: 521f bcbd 5d46 e3bd ac1a eabe 617b 91be
000002b0: ef00 f33b d0d1 c8bd c51b a9bd 5128 9f3d
000002c0: 409e 073d b40d b2bd da26 8dbd 08f7 07be
000002d0: 262f 333d 436f 01be 62ce 903d b6a6 a5bd
000002e0: ddfc 5d3d 724f 0dbc 7324 c5bd 3720 5abb
000002f0: ecf1 1dbe 0d61 16be 2aa5 02bf cd97 0fbe
00000300: 6b17 68bd ef32 66bf 4750 04be ed01 d3be
00000310: 54b2 9abe 30a3 d33c 497e 65be 7c1c b0bd
00000320: 72d2 e5bd 64ea 1abe f8c4 ec3d 5300 4e3d
00000330: 87c7 22bd eb22 5ebe 2d48 13be a46b f13c
00000340: ae48 57be 37cd 993d 718d 32bd 9197 99be
00000350: e100 81be 1973 04be 9304 3fbe a11f f5bd
00000360: f672 80be 0542 08bf f827 7bbe 7796 84be
00000370: 7a0c 12bf 7a4b 8ebe b5c1 d3be be70 43be
00000380: 5e32 9b3e 7544 ccbe 537d 603b 4aab 88be
00000390: 65f4 4ebe 93f7 58bf 3d88 54be 1876 09bf
000003a0: e787 fabe 0c31 c63c c3f7 ca3c 284a 02be
000003b0: a4e3 a5bd 347f 8b3d e3fa 523d 2de5 f63d
000003c0: d42a 6a3d 2804 2abe c3f5 32bc 1cca 4abd
000003d0: 6d3a 36be b6c1 d7bd 19a2 05be 15a7 633d
000003e0: 0d3c 333e d8bf 49bd 25c0 50be 2176 6ebd
000003f0: 7015 35be 0c75 743e fe6b f8bd 1500 bc3d

transformer.transformers.1.predictor.bn2.weight f4 [32]
0.5146309 0.3482241 0.32864854 0.27719763 0.038017593 0.580356 0.48298904 0.11060125
0.11460003 0.096815586 0.14847726 0.4426661 0.16828625 0.3987917 0.478397 0.76800185
0.03650678 0.18631485 0.5448656 0.079838164 0.16112179 0.24038737 0.36090264 0.9733996
0.658556 0.43496987 0.7758512 0.05611645 0.59935385 0.28614146 0.119018726 0.17114095
00000000: dabe 033f 6e4a b23e 9f44 a83e d9ec 8d3e
00000010: 56b8 1b3d 3692 143f 574a f73e e882 e23d
00000020: 6cb3 ea3d 4047 c63d 6c0a 183e 22a5 e23e
00000030: 3b53 2c3e 6d2e cc3e 74f0 f43e c59b 443f
00000040: 2288 153d 52c9 3e3e 507c 0b3f 3182 a33d
00000050: 1cfd 243e 1b28 763e 3bc8 b83e b730 793f
00000060: 2097 283f 5fb4 de3e 2f9e 463f 5dda 653d
00000070: 416f 193f 2281 923e 17c0 f33d 933f 2f3e

transformer.transformers.1.predictor.bn2.bias f4 [32]
-0.33637816 0.2682009 -0.10542164 -0.047726143 -0.19847593 -0.2984798 -0.111656174 -0.2845998
-0.027914131 0.0016380777 0.13504554 0.27597097 0.035638247 0.1262185 -0.09174879 -0.15450785
0.011314825 -0.06289715 -0.23356415 -0.0031149474 0.112739414 -0.0736372 -0.19150342 0.2516223
-0.24365988 -0.1930159 0.3227209 -0.20249535 0.2326266 0.14240465 0.0120950965 0.18244241
00000000: c239 acbe a151 893e 4de7 d7bd 7d7c 43bd
00000010: 463d 4bbe 58d2 98be feab e4bd 11b7 91be
00000020: 2dac e4bc c4b4 d63a 6149 0a3e 114c 8d3e
00000030: 69f9 113d 6c3f 013e cae6 bbbd 4e37 1ebe
00000040: d161 393c 39d0 80bd 712b 6fbe 2524 4cbb
00000050: ece3 e63d 1acf 96bd 7919 44be a3d4 803e
00000060: fa81 79be f6a5 45be ac3b a53e f15a 4fbe
00000070: ab35 6e3e 86d2 113e 832a 463c 2fd2 3a3e

transformer.transformers.1.predictor.bn2.running_mean f4 [32]
-13.271186 2.5752509 -7.9755125 -5.2064095 -4.452207 -5.370534 -4.809038 -2.7773032
-10.738738 6.5380216 1.9834658 8.996517 5.1363454 3.5358133 -3.2885482 -3.9520965
3.2824125 -5.763241 -4.051177 1.60926 6.812398 -4.6028867 -6.7710466 5.34598
-0.5224531 -14.010484 5.391356 -1.8390917 6.6789937 10.1812315 3.5667565 10.999658
00000000: c756 54c1 e9d0 2440 6637 ffc0 e89a a6c0
00000010: 7b78 8ec0 6adb abc0 a4e3 99c0 56bf 31c0
00000020: dfd1 2bc1 7937 d140 35e2 fd3f bcf1 0f41
00000030: f15c a440 c44a 6240 9377 52c0 26ef 7cc0
00000040: 0c13 5240 786c b8c0 3ea3 81c0 3bfc cd3f
00000050: 2aff d940 d94a 93c0 6aac d8c0 4512 ab40
00000060: 7dbf 05bf f12a 60c1 fd85 ac40 5b67 ebbf
00000070: 51ba d540 53e6 2241 bd45 6440 99fe 2f41

transformer.transformers.1.predictor.bn2.running_var f4 [32]
21.93842 20.339235 17.901218 8.556415 8.535306 10.750281 15.416501 2.2006931
43.82488 7.0042915 11.818748 7.9061904 26.791977 16.520893 20.146229 12.076444
5.9158607 16.674278 8.024091 18.613312 11.729328 13.284182 6.964177 18.180696
6.320205 33.72501 18.019726 2.039499 18.81556 16.665846 22.05349 11.832715
00000000: e281 af41 c1b6 a241 b235 8f41 13e7 0841
00000010: 9d90 0841 2701 2c41 fda9 7641 28d8 0c40
00000020: ad4c 2f42 2823 e040 9819 3d41 83ff fc40
00000030: f855 d641 ca2a 8441 7a2b a141 1d39 4141
00000040: bb4e bd40 ec64 8541 ad62 0041 10e8 9441
00000050: 54ab 3b41 028c 5441 8ada de40 1172 9141
00000060: 1f3f ca40 69e6 0642 6628 9041 2787 0240
00000070: 4486 9641 a753 8541 8c6d b041 cd52 3d41

transformer.transformers.1.predictor.conv_u.weight f4 [1, 32, 3]
0.03857878 0.084603 0.07617837 -0.023116574 -0.07967447 0.0767993 -0.05258006 0.07691389
-0.07300167 -0.007231027 -0.05087865 -0.07703144 0.056583866 -0.099486984 0.052582726 0.06613374
-0.08243659 -0.07691923 -0.036193274 0.006909728 -0.054418016 -0.059547737 0.088372976 -0.029994778
0.022645444 0.05441548 0.025712788 -0.054198798 -0.10093321 0.038056463 -0.09557346 -0.05307066
0.067998365 -0.06881575 -0.0824361 -0.0030956864 0.070673734 -0.05881149 0.08850697 -0.031774364
0.02669464 0.08835024 0.057582915 -0.03949838 -0.08722934 -0.084642574 0.040898442 0.04821928
0.035615906 0.0650229 0.08999345 0.02439627 0.06784043 0.02758284 0.02875118 0.056967303
-0.03437973 -0.020815663 0.030804023 0.018094033 0.024874061 0.017095402 0.09075002 -0.01922357
0.038218096 -0.040244363 -0.05731577 0.014359705 -0.040412545 0.002518542 -0.096813194 -0.10038826
-0.00922855 0.051713362 0.02682066 -0.054547388 -0.0068507195 -0.021340586 0.08394751 0.0066640824
0.078589275 -0.06332192 0.0009956509 0.08153102 0.04142347 -0.09436517 0.08882792 0.010212064
0.062869966 -0.0068271384 0.0963943 0.07011993 -0.038816303 0.043286443 -0.036107413 0.07469824
00000000: c804 1e3d 5644 ad3d 6803 9c3d f85e bdbc
00000010: 5e2c a3bd f448 9d3d 305e 57bd 0885 9d3d
00000020: e681 95bd 40f2 ecbb 2266 50bd a9c2 9dbd
00000030: 7cc4 673d d5bf cbbd fc60 573d 2071 873d
00000040: 84d4 a8bd d487 9dbd 663f 14bd 006b e23b
00000050: 6de5 5ebd 54e8 73bd e4fc b43d 9cb7 f5bc
00000060: f082 b93c c4e2 5e3d a0a3 d23c 8fff 5dbd
00000070: 12b6 cebd 18e1 1b3d 05bc c3bd 9f60 59bd
00000080: ba42 8b3d 46ef 8cbd 42d4 a8bd 00e1 4abb
00000090: 64bd 903d 51e4 70bd 2443 b53d d625 02bd
000000a0: b8ae da3c f8f0 b43d 10dc 6b3d 0ec9 21bd
000000b0: 4ca5 b2bd 1659 adbd 2085 273d 9481 453d
000000c0: fce1 113d ba2a 853d 7c4e b83d b0da c73c
000000d0: ecef 8a3d 68f5 e13c 9887 eb3c 8c56 693d
000000e0: c2d1 0cbd 9c85 aabc b858 fc3c f039 943c
000000f0: b0c4 cb3c a80b 8c3c 26db b93d c07a 9dbc
00000100: 948a 1c3d 46d7 24bd f1c3 6abd f844 6b3c
00000110: a087 25bd 200e 253b ff45 c6bd 5c98 cdbd
00000120: 5833 17bc 64d1 533d 00b7 db3c 156d 5fbd
00000130: 007c e0bb 74d2 aebc acec ab3d 605e da3b
00000140: 6af3 a03d ecae 81bd 8080 823a bcf9 a63d
00000150: a8ab 293d 8742 c1bd 6aeb b53d 8050 273c
00000160: f8c1 803d 30b6 dfbb 606a c53d 0a9b 8f3d
00000170: d8fd 1ebd 204d 313d 5ee5 13bd 64fb 983d

transformer.transformers.1.predictor.conv_v.weight f4 [1, 32, 3]
0.12186784 0.21545708 0.039948244 -0.28952762 -0.04669563 -0.3841521 0.011077248 0.20713937
0.092860706 -0.23926637 0.22620614 0.1891212 0.05498166 0.016331477 0.09702164 0.19472644
0.020331733 0.18502119 -0.06924302 0.23597994 0.26929912 0.0679484 0.0094618155 0.041583575
0.079661846 0.24480307 -0.12766282 -0.089471035 0.13974412 -0.15486903 -0.12590343 0.17305553
-0.25323474 -0.19946262 0.15831594 -0.21133356 -0.24790774 0.027932316 -0.16289927 -0.13193497
-0.06259794 -0.29955187 0.18045169 -0.053875476 0.39395362 -0.026008451 0.19960615 0.20144843
-0.05097746 0.13940613 -0.08359019 0.11436725 0.24939944 -0.19939882 -0.119498946 0.1703606
0.11071894 -0.12866917 -0.019400015 -0.14574754 -0.18109062 0.07310889 -0.25864983 -0.20322254
-0.032108728 -0.30212426 0.10943614 0.06527897 0.092680566 -0.41701308 0.01640275 -0.15297481
0.08951682 -0.13730256 0.107755706 0.04113166 0.23483795 0.14561324 -0.21284103 0.07625034
-0.30845562 0.09350043 0.08826731 -0.040688604 -0.25554913 0.035857383 -0.25236544 -0.27165458
0.18971731 -0.26342627 -0.045851767 -0.05364791 -0.17077494 -0.17372155 -0.024610244 -0.29373538
00000000: d995 f93d c8a0 5c3e c5a0 233d f73c 94be
00000010: eb43 3fbd 96af c4be 587d 353c 581c 543e
00000020: c12d be3d 3e02 75be 95a2 673e fda8 413e
00000030: 7334 613d 97c9 853c 48b3 c63d 5e66 473e
00000040: bc8e a63c 3276 3d3e 49cf 8dbd baa4 713e
00000050: 93e1 893e 8828 8b3d bb05 1b3c 8a53 2a3d
00000060: c025 a33d a8ad 7a3e 0bba 02be 973c b7bd
00000070: 1519 0f3e fd95 1ebe d4ec 00be 7835 313e
00000080: fca7 81be ee3f 4cbe 931d 223e d367 58be
00000090: 87db 7dbe 50d2 e43c 11cf 26be f619 07be
000000a0: 5933 80bd dd5e 99be 54c8 383e 88ac 5cbd
000000b0: 4ab4 c93e ad0f d5bc 8e65 4c3e 7f48 4e3e
000000c0: becd 50bd 7bc0 0e3e 5531 abbd 6039 ea3d
000000d0: 9162 7f3e 342f 4cbe ddbb f4bd 0273 2e3e
000000e0: 9dc0 e23d dac1 03be c8ec 9ebc d83e 15be
000000f0: d26f 39be 1dba 953d c06d 84be 9219 50be
00000100: 7184 03bd 08b0 9abe 0e20 e03d fbb0 853d
00000110: 4fcf bd3d bd82 d5be 0f5f 863c 6ea5 1cbe
00000120: 9854 b73d 0b99 0cbe 06af dc3d ac79 283d
00000130: 5c79 703e a31b 153e 00f3 59be 2329 9c3d
00000140: e5ed 9dbe 277d bf3d 7ec5 b43d 18a9 26bd
00000150: 56d7 82be 31df 123d 0b36 81be 4f16 8bbe
00000160: 4145 423e cfdf 86be 10cf 3bbd e9bd 5bbd
00000170: a0df 2ebe 10e4 31be 6c9b c9bc 7c64 96be
